…
[2025-05-01 23:28:49,347][train][INFO] - Epoch 136/140, Val Acc=0.7180, Val Loss=1.4764, lr=0.0001
[2025-05-01 23:28:58,043][train][INFO] - Epoch 137/140, Val Acc=0.7172, Val Loss=1.4801, lr=0.0001
[2025-05-01 23:29:06,194][train][INFO] - Epoch 138/140, Val Acc=0.7192, Val Loss=1.4760, lr=0.0001
[2025-05-01 23:29:14,286][train][INFO] - Epoch 139/140, Val Acc=0.7174, Val Loss=1.4773, lr=0.0001
[2025-05-01 23:29:22,791][train][INFO] - Epoch 140/140, Val Acc=0.7172, Val Loss=1.4812, lr=0.0001
[2025-05-01 23:29:28,092][train][INFO] - After training : Train Acc=0.9984  Val Acc=0.7203
[2025-05-01 23:29:28,126][Pruning][INFO] - 
MyVGG(
  (block0): Sequential(
    (0): Conv2d(3, 9, kernel_size=(3, 3), stride=(1, 1), padding=(1, 1))
    (1): BatchNorm2d(9, eps=1e-05, momentum=0.1, affine=True, track_running_stats=True)
    (2): ReLU(inplace=True)
    (3): Conv2d(9, 51, kernel_size=(3, 3), stride=(1, 1), padding=(1, 1))
    (4): BatchNorm2d(51, eps=1e-05, momentum=0.1, affine=True, track_running_stats=True)
  )
  (block1): Sequential(
    (0): Conv2d(51, 120, kernel_size=(3, 3), stride=(1, 1), padding=(1, 1))
    (1): BatchNorm2d(120, eps=1e-05, momentum=0.1, affine=True, track_running_stats=True)
    (2): ReLU(inplace=True)
    (3): Conv2d(120, 128, kernel_size=(3, 3), stride=(1, 1), padding=(1, 1))
    (4): BatchNorm2d(128, eps=1e-05, momentum=0.1, affine=True, track_running_stats=True)
  )
  (block2): Sequential(
    (0): Conv2d(128, 254, kernel_size=(3, 3), stride=(1, 1), padding=(1, 1))
    (1): BatchNorm2d(254, eps=1e-05, momentum=0.1, affine=True, track_running_stats=True)
    (2): ReLU(inplace=True)
    (3): Conv2d(254, 256, kernel_size=(3, 3), stride=(1, 1), padding=(1, 1))
    (4): BatchNorm2d(256, eps=1e-05, momentum=0.1, affine=True, track_running_stats=True)
    (5): ReLU(inplace=True)
    (6): Conv2d(256, 252, kernel_size=(3, 3), stride=(1, 1), padding=(1, 1))
    (7): BatchNorm2d(252, eps=1e-05, momentum=0.1, affine=True, track_running_stats=True)
    (8): ReLU(inplace=True)
    (9): Conv2d(252, 122, kernel_size=(3, 3), stride=(1, 1), padding=(1, 1))
    (10): BatchNorm2d(122, eps=1e-05, momentum=0.1, affine=True, track_running_stats=True)
  )
  (block3): Sequential(
    (0): Conv2d(122, 38, kernel_size=(3, 3), stride=(1, 1), padding=(1, 1))
    (1): BatchNorm2d(38, eps=1e-05, momentum=0.1, affine=True, track_running_stats=True)
    (2): ReLU(inplace=True)
    (3): Conv2d(38, 5, kernel_size=(3, 3), stride=(1, 1), padding=(1, 1))
    (4): BatchNorm2d(5, eps=1e-05, momentum=0.1, affine=True, track_running_stats=True)
    (5): ReLU(inplace=True)
    (6): Conv2d(5, 3, kernel_size=(3, 3), stride=(1, 1), padding=(1, 1))
    (7): BatchNorm2d(3, eps=1e-05, momentum=0.1, affine=True, track_running_stats=True)
    (8): ReLU(inplace=True)
    (9): Conv2d(3, 41, kernel_size=(3, 3), stride=(1, 1), padding=(1, 1))
    (10): BatchNorm2d(41, eps=1e-05, momentum=0.1, affine=True, track_running_stats=True)
  )
  (block4): Sequential(
    (0): Conv2d(41, 19, kernel_size=(3, 3), stride=(1, 1), padding=(1, 1))
    (1): BatchNorm2d(19, eps=1e-05, momentum=0.1, affine=True, track_running_stats=True)
    (2): ReLU(inplace=True)
    (3): Conv2d(19, 40, kernel_size=(3, 3), stride=(1, 1), padding=(1, 1))
    (4): BatchNorm2d(40, eps=1e-05, momentum=0.1, affine=True, track_running_stats=True)
    (5): ReLU(inplace=True)
    (6): Conv2d(40, 115, kernel_size=(3, 3), stride=(1, 1), padding=(1, 1))
    (7): BatchNorm2d(115, eps=1e-05, momentum=0.1, affine=True, track_running_stats=True)
    (8): ReLU(inplace=True)
    (9): Conv2d(115, 127, kernel_size=(3, 3), stride=(1, 1), padding=(1, 1))
    (10): BatchNorm2d(127, eps=1e-05, momentum=0.1, affine=True, track_running_stats=True)
  )
  (pool0): MaxPool2d(kernel_size=2, stride=2, padding=0, dilation=1, ceil_mode=False)
  (pool1): MaxPool2d(kernel_size=2, stride=2, padding=0, dilation=1, ceil_mode=False)
  (pool2): MaxPool2d(kernel_size=2, stride=2, padding=0, dilation=1, ceil_mode=False)
  (pool3): MaxPool2d(kernel_size=2, stride=2, padding=0, dilation=1, ceil_mode=False)
  (pool4): AdaptiveAvgPool2d(output_size=(1, 1))
  (classifier): Linear(in_features=127, out_features=100, bias=True)
)
[2025-05-01 23:29:28,126][Pruning][INFO] - Origin val acc : 0.736799955368042 Final val acc : 0.7202999591827393
                      Speed up: 2.28   Final speed up: 3.03
