…
[2025-05-08 14:29:55,974][train][INFO] - Epoch 1997/2000, Val Acc=0.7016, Val Loss=1.5823, lr=0.0001
[2025-05-08 14:29:59,614][train][INFO] - Epoch 1999/2000, Val Acc=0.6816, Val Loss=1.6120, lr=0.0001
[2025-05-08 14:30:01,641][train][INFO] - Epoch 1998/2000, Val Acc=0.7017, Val Loss=1.5844, lr=0.0001
[2025-05-08 14:30:05,316][train][INFO] - Epoch 2000/2000, Val Acc=0.6818, Val Loss=1.6106, lr=0.0001
[2025-05-08 14:30:07,439][train][INFO] - Epoch 1999/2000, Val Acc=0.7020, Val Loss=1.5816, lr=0.0001
[2025-05-08 14:30:09,744][train][INFO] - After training : Train Acc=0.9983  Val Acc=0.6847
[2025-05-08 14:30:09,805][Pruning][INFO] - 
MyVGG(
  (block0): Sequential(
    (0): Conv2d(3, 4, kernel_size=(3, 3), stride=(1, 1), padding=(1, 1))
    (1): BatchNorm2d(4, eps=1e-05, momentum=0.1, affine=True, track_running_stats=True)
    (2): ReLU(inplace=True)
    (3): Conv2d(4, 45, kernel_size=(3, 3), stride=(1, 1), padding=(1, 1))
    (4): BatchNorm2d(45, eps=1e-05, momentum=0.1, affine=True, track_running_stats=True)
  )
  (block1): Sequential(
    (0): Conv2d(45, 85, kernel_size=(3, 3), stride=(1, 1), padding=(1, 1))
    (1): BatchNorm2d(85, eps=1e-05, momentum=0.1, affine=True, track_running_stats=True)
    (2): ReLU(inplace=True)
    (3): Conv2d(85, 97, kernel_size=(3, 3), stride=(1, 1), padding=(1, 1))
    (4): BatchNorm2d(97, eps=1e-05, momentum=0.1, affine=True, track_running_stats=True)
  )
  (block2): Sequential(
    (0): Conv2d(97, 134, kernel_size=(3, 3), stride=(1, 1), padding=(1, 1))
    (1): BatchNorm2d(134, eps=1e-05, momentum=0.1, affine=True, track_running_stats=True)
    (2): ReLU(inplace=True)
    (3): Conv2d(134, 133, kernel_size=(3, 3), stride=(1, 1), padding=(1, 1))
    (4): BatchNorm2d(133, eps=1e-05, momentum=0.1, affine=True, track_running_stats=True)
    (5): ReLU(inplace=True)
    (6): Conv2d(133, 17, kernel_size=(3, 3), stride=(1, 1), padding=(1, 1))
    (7): BatchNorm2d(17, eps=1e-05, momentum=0.1, affine=True, track_running_stats=True)
    (8): ReLU(inplace=True)
    (9): Conv2d(17, 34, kernel_size=(3, 3), stride=(1, 1), padding=(1, 1))
    (10): BatchNorm2d(34, eps=1e-05, momentum=0.1, affine=True, track_running_stats=True)
  )
  (block3): Sequential(
    (0): Conv2d(34, 86, kernel_size=(3, 3), stride=(1, 1), padding=(1, 1))
    (1): BatchNorm2d(86, eps=1e-05, momentum=0.1, affine=True, track_running_stats=True)
    (2): ReLU(inplace=True)
    (3): Conv2d(86, 296, kernel_size=(3, 3), stride=(1, 1), padding=(1, 1))
    (4): BatchNorm2d(296, eps=1e-05, momentum=0.1, affine=True, track_running_stats=True)
    (5): ReLU(inplace=True)
    (6): Conv2d(296, 27, kernel_size=(3, 3), stride=(1, 1), padding=(1, 1))
    (7): BatchNorm2d(27, eps=1e-05, momentum=0.1, affine=True, track_running_stats=True)
    (8): ReLU(inplace=True)
    (9): Conv2d(27, 79, kernel_size=(3, 3), stride=(1, 1), padding=(1, 1))
    (10): BatchNorm2d(79, eps=1e-05, momentum=0.1, affine=True, track_running_stats=True)
  )
  (block4): Sequential(
    (0): Conv2d(79, 39, kernel_size=(3, 3), stride=(1, 1), padding=(1, 1))
    (1): BatchNorm2d(39, eps=1e-05, momentum=0.1, affine=True, track_running_stats=True)
    (2): ReLU(inplace=True)
    (3): Conv2d(39, 29, kernel_size=(3, 3), stride=(1, 1), padding=(1, 1))
    (4): BatchNorm2d(29, eps=1e-05, momentum=0.1, affine=True, track_running_stats=True)
    (5): ReLU(inplace=True)
    (6): Conv2d(29, 21, kernel_size=(3, 3), stride=(1, 1), padding=(1, 1))
    (7): BatchNorm2d(21, eps=1e-05, momentum=0.1, affine=True, track_running_stats=True)
    (8): ReLU(inplace=True)
    (9): Conv2d(21, 99, kernel_size=(3, 3), stride=(1, 1), padding=(1, 1))
    (10): BatchNorm2d(99, eps=1e-05, momentum=0.1, affine=True, track_running_stats=True)
  )
  (pool0): MaxPool2d(kernel_size=2, stride=2, padding=0, dilation=1, ceil_mode=False)
  (pool1): MaxPool2d(kernel_size=2, stride=2, padding=0, dilation=1, ceil_mode=False)
  (pool2): MaxPool2d(kernel_size=2, stride=2, padding=0, dilation=1, ceil_mode=False)
  (pool3): MaxPool2d(kernel_size=2, stride=2, padding=0, dilation=1, ceil_mode=False)
  (pool4): AdaptiveAvgPool2d(output_size=(1, 1))
  (classifier): Linear(in_features=99, out_features=100, bias=True)
)
[2025-05-08 14:30:09,805][Pruning][INFO] - Origin val acc : 0.7368999719619751 Final val acc : 0.6847000122070312
                      Speed up: 4.57   Final speed up: 9.15
[2025-05-08 14:30:13,275][train][INFO] - Epoch 2000/2000, Val Acc=0.7016, Val Loss=1.5816, lr=0.0001
[2025-05-08 14:30:17,612][train][INFO] - After training : Train Acc=0.9987  Val Acc=0.7036
…
[2025-05-08 17:58:37,700][train][INFO] - Epoch 1998/2000, Val Acc=0.6790, Val Loss=1.8426, lr=0.0001
[2025-05-08 17:58:43,768][train][INFO] - Epoch 1166/2000, Val Acc=0.6301, Val Loss=1.7030, lr=0.0100
[2025-05-08 17:58:44,269][train][INFO] - Epoch 1999/2000, Val Acc=0.6783, Val Loss=1.8413, lr=0.0001
[2025-05-08 17:58:50,805][train][INFO] - Epoch 1167/2000, Val Acc=0.6399, Val Loss=1.6271, lr=0.0100
[2025-05-08 17:58:51,099][train][INFO] - Epoch 2000/2000, Val Acc=0.6782, Val Loss=1.8494, lr=0.0001
[2025-05-08 17:58:55,450][train][INFO] - After training : Train Acc=0.9872  Val Acc=0.6809
[2025-05-08 17:58:55,473][Pruning][INFO] - 
MyVGG(
  (block0): Sequential(
    (0): Conv2d(3, 4, kernel_size=(3, 3), stride=(1, 1), padding=(1, 1))
    (1): BatchNorm2d(4, eps=1e-05, momentum=0.1, affine=True, track_running_stats=True)
    (2): ReLU(inplace=True)
    (3): Conv2d(4, 43, kernel_size=(3, 3), stride=(1, 1), padding=(1, 1))
    (4): BatchNorm2d(43, eps=1e-05, momentum=0.1, affine=True, track_running_stats=True)
  )
  (block1): Sequential(
    (0): Conv2d(43, 69, kernel_size=(3, 3), stride=(1, 1), padding=(1, 1))
    (1): BatchNorm2d(69, eps=1e-05, momentum=0.1, affine=True, track_running_stats=True)
    (2): ReLU(inplace=True)
    (3): Conv2d(69, 97, kernel_size=(3, 3), stride=(1, 1), padding=(1, 1))
    (4): BatchNorm2d(97, eps=1e-05, momentum=0.1, affine=True, track_running_stats=True)
  )
  (block2): Sequential(
    (0): Conv2d(97, 126, kernel_size=(3, 3), stride=(1, 1), padding=(1, 1))
    (1): BatchNorm2d(126, eps=1e-05, momentum=0.1, affine=True, track_running_stats=True)
    (2): ReLU(inplace=True)
    (3): Conv2d(126, 176, kernel_size=(3, 3), stride=(1, 1), padding=(1, 1))
    (4): BatchNorm2d(176, eps=1e-05, momentum=0.1, affine=True, track_running_stats=True)
    (5): ReLU(inplace=True)
    (6): Conv2d(176, 96, kernel_size=(3, 3), stride=(1, 1), padding=(1, 1))
    (7): BatchNorm2d(96, eps=1e-05, momentum=0.1, affine=True, track_running_stats=True)
    (8): ReLU(inplace=True)
    (9): Conv2d(96, 31, kernel_size=(3, 3), stride=(1, 1), padding=(1, 1))
    (10): BatchNorm2d(31, eps=1e-05, momentum=0.1, affine=True, track_running_stats=True)
  )
  (block3): Sequential(
    (0): Conv2d(31, 38, kernel_size=(3, 3), stride=(1, 1), padding=(1, 1))
    (1): BatchNorm2d(38, eps=1e-05, momentum=0.1, affine=True, track_running_stats=True)
    (2): ReLU(inplace=True)
    (3): Conv2d(38, 27, kernel_size=(3, 3), stride=(1, 1), padding=(1, 1))
    (4): BatchNorm2d(27, eps=1e-05, momentum=0.1, affine=True, track_running_stats=True)
    (5): ReLU(inplace=True)
    (6): Conv2d(27, 4, kernel_size=(3, 3), stride=(1, 1), padding=(1, 1))
    (7): BatchNorm2d(4, eps=1e-05, momentum=0.1, affine=True, track_running_stats=True)
    (8): ReLU(inplace=True)
    (9): Conv2d(4, 13, kernel_size=(3, 3), stride=(1, 1), padding=(1, 1))
    (10): BatchNorm2d(13, eps=1e-05, momentum=0.1, affine=True, track_running_stats=True)
  )
  (block4): Sequential(
    (0): Conv2d(13, 27, kernel_size=(3, 3), stride=(1, 1), padding=(1, 1))
    (1): BatchNorm2d(27, eps=1e-05, momentum=0.1, affine=True, track_running_stats=True)
    (2): ReLU(inplace=True)
    (3): Conv2d(27, 22, kernel_size=(3, 3), stride=(1, 1), padding=(1, 1))
    (4): BatchNorm2d(22, eps=1e-05, momentum=0.1, affine=True, track_running_stats=True)
    (5): ReLU(inplace=True)
    (6): Conv2d(22, 12, kernel_size=(3, 3), stride=(1, 1), padding=(1, 1))
    (7): BatchNorm2d(12, eps=1e-05, momentum=0.1, affine=True, track_running_stats=True)
    (8): ReLU(inplace=True)
    (9): Conv2d(12, 17, kernel_size=(3, 3), stride=(1, 1), padding=(1, 1))
    (10): BatchNorm2d(17, eps=1e-05, momentum=0.1, affine=True, track_running_stats=True)
  )
  (pool0): MaxPool2d(kernel_size=2, stride=2, padding=0, dilation=1, ceil_mode=False)
  (pool1): MaxPool2d(kernel_size=2, stride=2, padding=0, dilation=1, ceil_mode=False)
  (pool2): MaxPool2d(kernel_size=2, stride=2, padding=0, dilation=1, ceil_mode=False)
  (pool3): MaxPool2d(kernel_size=2, stride=2, padding=0, dilation=1, ceil_mode=False)
  (pool4): AdaptiveAvgPool2d(output_size=(1, 1))
  (classifier): Linear(in_features=17, out_features=100, bias=True)
)
[2025-05-08 17:58:55,473][Pruning][INFO] - Origin val acc : 0.7368999719619751 Final val acc : 0.680899977684021
                      Speed up: 4.56   Final speed up: 9.12
[2025-05-08 17:58:59,254][train][INFO] - Epoch 1168/2000, Val Acc=0.6123, Val Loss=1.7810, lr=0.0100
[2025-05-08 17:59:07,496][train][INFO] - Epoch 1169/2000, Val Acc=0.6188, Val Loss=1.7376, lr=0.0100
…
[2025-05-08 23:58:33,843][train][INFO] - Epoch 1996/2000, Val Acc=0.6804, Val Loss=1.7667, lr=0.0001
[2025-05-08 23:58:47,265][train][INFO] - Epoch 1997/2000, Val Acc=0.6817, Val Loss=1.7619, lr=0.0001
[2025-05-08 23:59:00,820][train][INFO] - Epoch 1998/2000, Val Acc=0.6814, Val Loss=1.7690, lr=0.0001
[2025-05-08 23:59:14,476][train][INFO] - Epoch 1999/2000, Val Acc=0.6798, Val Loss=1.7733, lr=0.0001
[2025-05-08 23:59:28,040][train][INFO] - Epoch 2000/2000, Val Acc=0.6818, Val Loss=1.7753, lr=0.0001
[2025-05-08 23:59:32,084][train][INFO] - After training : Train Acc=0.9976  Val Acc=0.6850
[2025-05-08 23:59:32,135][Pruning][INFO] - 
MyVGG(
  (block0): Sequential(
    (0): Conv2d(3, 5, kernel_size=(3, 3), stride=(1, 1), padding=(1, 1))
    (1): BatchNorm2d(5, eps=1e-05, momentum=0.1, affine=True, track_running_stats=True)
    (2): ReLU(inplace=True)
    (3): Conv2d(5, 34, kernel_size=(3, 3), stride=(1, 1), padding=(1, 1))
    (4): BatchNorm2d(34, eps=1e-05, momentum=0.1, affine=True, track_running_stats=True)
  )
  (block1): Sequential(
    (0): Conv2d(34, 77, kernel_size=(3, 3), stride=(1, 1), padding=(1, 1))
    (1): BatchNorm2d(77, eps=1e-05, momentum=0.1, affine=True, track_running_stats=True)
    (2): ReLU(inplace=True)
    (3): Conv2d(77, 102, kernel_size=(3, 3), stride=(1, 1), padding=(1, 1))
    (4): BatchNorm2d(102, eps=1e-05, momentum=0.1, affine=True, track_running_stats=True)
  )
  (block2): Sequential(
    (0): Conv2d(102, 125, kernel_size=(3, 3), stride=(1, 1), padding=(1, 1))
    (1): BatchNorm2d(125, eps=1e-05, momentum=0.1, affine=True, track_running_stats=True)
    (2): ReLU(inplace=True)
    (3): Conv2d(125, 171, kernel_size=(3, 3), stride=(1, 1), padding=(1, 1))
    (4): BatchNorm2d(171, eps=1e-05, momentum=0.1, affine=True, track_running_stats=True)
    (5): ReLU(inplace=True)
    (6): Conv2d(171, 91, kernel_size=(3, 3), stride=(1, 1), padding=(1, 1))
    (7): BatchNorm2d(91, eps=1e-05, momentum=0.1, affine=True, track_running_stats=True)
    (8): ReLU(inplace=True)
    (9): Conv2d(91, 20, kernel_size=(3, 3), stride=(1, 1), padding=(1, 1))
    (10): BatchNorm2d(20, eps=1e-05, momentum=0.1, affine=True, track_running_stats=True)
  )
  (block3): Sequential(
    (0): Conv2d(20, 22, kernel_size=(3, 3), stride=(1, 1), padding=(1, 1))
    (1): BatchNorm2d(22, eps=1e-05, momentum=0.1, affine=True, track_running_stats=True)
    (2): ReLU(inplace=True)
    (3): Conv2d(22, 40, kernel_size=(3, 3), stride=(1, 1), padding=(1, 1))
    (4): BatchNorm2d(40, eps=1e-05, momentum=0.1, affine=True, track_running_stats=True)
    (5): ReLU(inplace=True)
    (6): Conv2d(40, 2, kernel_size=(3, 3), stride=(1, 1), padding=(1, 1))
    (7): BatchNorm2d(2, eps=1e-05, momentum=0.1, affine=True, track_running_stats=True)
    (8): ReLU(inplace=True)
    (9): Conv2d(2, 2, kernel_size=(3, 3), stride=(1, 1), padding=(1, 1))
    (10): BatchNorm2d(2, eps=1e-05, momentum=0.1, affine=True, track_running_stats=True)
  )
  (block4): Sequential(
    (0): Conv2d(2, 7, kernel_size=(3, 3), stride=(1, 1), padding=(1, 1))
    (1): BatchNorm2d(7, eps=1e-05, momentum=0.1, affine=True, track_running_stats=True)
    (2): ReLU(inplace=True)
    (3): Conv2d(7, 30, kernel_size=(3, 3), stride=(1, 1), padding=(1, 1))
    (4): BatchNorm2d(30, eps=1e-05, momentum=0.1, affine=True, track_running_stats=True)
    (5): ReLU(inplace=True)
    (6): Conv2d(30, 75, kernel_size=(3, 3), stride=(1, 1), padding=(1, 1))
    (7): BatchNorm2d(75, eps=1e-05, momentum=0.1, affine=True, track_running_stats=True)
    (8): ReLU(inplace=True)
    (9): Conv2d(75, 29, kernel_size=(3, 3), stride=(1, 1), padding=(1, 1))
    (10): BatchNorm2d(29, eps=1e-05, momentum=0.1, affine=True, track_running_stats=True)
  )
  (pool0): MaxPool2d(kernel_size=2, stride=2, padding=0, dilation=1, ceil_mode=False)
  (pool1): MaxPool2d(kernel_size=2, stride=2, padding=0, dilation=1, ceil_mode=False)
  (pool2): MaxPool2d(kernel_size=2, stride=2, padding=0, dilation=1, ceil_mode=False)
  (pool3): MaxPool2d(kernel_size=2, stride=2, padding=0, dilation=1, ceil_mode=False)
  (pool4): AdaptiveAvgPool2d(output_size=(1, 1))
  (classifier): Linear(in_features=29, out_features=100, bias=True)
)
[2025-05-08 23:59:32,135][Pruning][INFO] - Origin val acc : 0.7368999719619751 Final val acc : 0.6850000023841858
                      Speed up: 4.51   Final speed up: 9.02
/home/liuyewei/miniconda3/envs/meta-pruning/lib/python3.9/site-packages/torch_geometric/typing.py:31: UserWarning: An issue occurred while importing 'torch-scatter'. Disabling its usage. Stacktrace: /home/liuyewei/miniconda3/envs/meta-pruning/lib/python3.9/site-packages/torch_scatter/_version_cuda.so: undefined symbol: _ZN3c1017RegisterOperatorsD1Ev
…
[2025-05-09 07:37:14,451][train][INFO] - Epoch 1998/2000, Val Acc=0.6861, Val Loss=1.7281, lr=0.0001
[2025-05-09 07:37:18,685][train][INFO] - Epoch 1695/2000, Val Acc=0.6055, Val Loss=1.9151, lr=0.0100
[2025-05-09 07:37:20,767][train][INFO] - Epoch 1999/2000, Val Acc=0.6877, Val Loss=1.7246, lr=0.0001
[2025-05-09 07:37:27,014][train][INFO] - Epoch 1696/2000, Val Acc=0.6090, Val Loss=1.8503, lr=0.0100
[2025-05-09 07:37:28,358][train][INFO] - Epoch 2000/2000, Val Acc=0.6884, Val Loss=1.7293, lr=0.0001
[2025-05-09 07:37:32,834][train][INFO] - After training : Train Acc=0.9975  Val Acc=0.6896
[2025-05-09 07:37:32,882][Pruning][INFO] - 
MyVGG(
  (block0): Sequential(
    (0): Conv2d(3, 4, kernel_size=(3, 3), stride=(1, 1), padding=(1, 1))
    (1): BatchNorm2d(4, eps=1e-05, momentum=0.1, affine=True, track_running_stats=True)
    (2): ReLU(inplace=True)
    (3): Conv2d(4, 36, kernel_size=(3, 3), stride=(1, 1), padding=(1, 1))
    (4): BatchNorm2d(36, eps=1e-05, momentum=0.1, affine=True, track_running_stats=True)
  )
  (block1): Sequential(
    (0): Conv2d(36, 82, kernel_size=(3, 3), stride=(1, 1), padding=(1, 1))
    (1): BatchNorm2d(82, eps=1e-05, momentum=0.1, affine=True, track_running_stats=True)
    (2): ReLU(inplace=True)
    (3): Conv2d(82, 95, kernel_size=(3, 3), stride=(1, 1), padding=(1, 1))
    (4): BatchNorm2d(95, eps=1e-05, momentum=0.1, affine=True, track_running_stats=True)
  )
  (block2): Sequential(
    (0): Conv2d(95, 108, kernel_size=(3, 3), stride=(1, 1), padding=(1, 1))
    (1): BatchNorm2d(108, eps=1e-05, momentum=0.1, affine=True, track_running_stats=True)
    (2): ReLU(inplace=True)
    (3): Conv2d(108, 151, kernel_size=(3, 3), stride=(1, 1), padding=(1, 1))
    (4): BatchNorm2d(151, eps=1e-05, momentum=0.1, affine=True, track_running_stats=True)
    (5): ReLU(inplace=True)
    (6): Conv2d(151, 116, kernel_size=(3, 3), stride=(1, 1), padding=(1, 1))
    (7): BatchNorm2d(116, eps=1e-05, momentum=0.1, affine=True, track_running_stats=True)
    (8): ReLU(inplace=True)
    (9): Conv2d(116, 38, kernel_size=(3, 3), stride=(1, 1), padding=(1, 1))
    (10): BatchNorm2d(38, eps=1e-05, momentum=0.1, affine=True, track_running_stats=True)
  )
  (block3): Sequential(
    (0): Conv2d(38, 50, kernel_size=(3, 3), stride=(1, 1), padding=(1, 1))
    (1): BatchNorm2d(50, eps=1e-05, momentum=0.1, affine=True, track_running_stats=True)
    (2): ReLU(inplace=True)
    (3): Conv2d(50, 103, kernel_size=(3, 3), stride=(1, 1), padding=(1, 1))
    (4): BatchNorm2d(103, eps=1e-05, momentum=0.1, affine=True, track_running_stats=True)
    (5): ReLU(inplace=True)
    (6): Conv2d(103, 1, kernel_size=(3, 3), stride=(1, 1), padding=(1, 1))
    (7): BatchNorm2d(1, eps=1e-05, momentum=0.1, affine=True, track_running_stats=True)
    (8): ReLU(inplace=True)
    (9): Conv2d(1, 1, kernel_size=(3, 3), stride=(1, 1), padding=(1, 1))
    (10): BatchNorm2d(1, eps=1e-05, momentum=0.1, affine=True, track_running_stats=True)
  )
  (block4): Sequential(
    (0): Conv2d(1, 7, kernel_size=(3, 3), stride=(1, 1), padding=(1, 1))
    (1): BatchNorm2d(7, eps=1e-05, momentum=0.1, affine=True, track_running_stats=True)
    (2): ReLU(inplace=True)
    (3): Conv2d(7, 28, kernel_size=(3, 3), stride=(1, 1), padding=(1, 1))
    (4): BatchNorm2d(28, eps=1e-05, momentum=0.1, affine=True, track_running_stats=True)
    (5): ReLU(inplace=True)
    (6): Conv2d(28, 71, kernel_size=(3, 3), stride=(1, 1), padding=(1, 1))
    (7): BatchNorm2d(71, eps=1e-05, momentum=0.1, affine=True, track_running_stats=True)
    (8): ReLU(inplace=True)
    (9): Conv2d(71, 64, kernel_size=(3, 3), stride=(1, 1), padding=(1, 1))
    (10): BatchNorm2d(64, eps=1e-05, momentum=0.1, affine=True, track_running_stats=True)
  )
  (pool0): MaxPool2d(kernel_size=2, stride=2, padding=0, dilation=1, ceil_mode=False)
  (pool1): MaxPool2d(kernel_size=2, stride=2, padding=0, dilation=1, ceil_mode=False)
  (pool2): MaxPool2d(kernel_size=2, stride=2, padding=0, dilation=1, ceil_mode=False)
  (pool3): MaxPool2d(kernel_size=2, stride=2, padding=0, dilation=1, ceil_mode=False)
  (pool4): AdaptiveAvgPool2d(output_size=(1, 1))
  (classifier): Linear(in_features=64, out_features=100, bias=True)
)
[2025-05-09 07:37:32,882][Pruning][INFO] - Origin val acc : 0.7368999719619751 Final val acc : 0.6895999908447266
                      Speed up: 4.53   Final speed up: 9.06
[2025-05-09 07:37:34,636][train][INFO] - Epoch 1697/2000, Val Acc=0.6075, Val Loss=1.8321, lr=0.0100
[2025-05-09 07:37:41,974][train][INFO] - Epoch 1698/2000, Val Acc=0.5993, Val Loss=1.9332, lr=0.0100
…
[2025-05-09 08:14:12,631][train][INFO] - Epoch 137/2000, Val Acc=0.5370, Val Loss=1.7903, lr=0.0100
[2025-05-09 08:14:15,322][train][INFO] - Epoch 1999/2000, Val Acc=0.6831, Val Loss=1.8661, lr=0.0001
[2025-05-09 08:14:19,086][train][INFO] - Epoch 138/2000, Val Acc=0.5764, Val Loss=1.6344, lr=0.0100
[2025-05-09 08:14:22,303][train][INFO] - Epoch 2000/2000, Val Acc=0.6810, Val Loss=1.8676, lr=0.0001
[2025-05-09 08:14:25,166][train][INFO] - Epoch 139/2000, Val Acc=0.5448, Val Loss=1.8022, lr=0.0100
[2025-05-09 08:14:26,625][train][INFO] - After training : Train Acc=0.9954  Val Acc=0.6835
[2025-05-09 08:14:26,661][Pruning][INFO] - 
MyVGG(
  (block0): Sequential(
    (0): Conv2d(3, 5, kernel_size=(3, 3), stride=(1, 1), padding=(1, 1))
    (1): BatchNorm2d(5, eps=1e-05, momentum=0.1, affine=True, track_running_stats=True)
    (2): ReLU(inplace=True)
    (3): Conv2d(5, 37, kernel_size=(3, 3), stride=(1, 1), padding=(1, 1))
    (4): BatchNorm2d(37, eps=1e-05, momentum=0.1, affine=True, track_running_stats=True)
  )
  (block1): Sequential(
    (0): Conv2d(37, 84, kernel_size=(3, 3), stride=(1, 1), padding=(1, 1))
    (1): BatchNorm2d(84, eps=1e-05, momentum=0.1, affine=True, track_running_stats=True)
    (2): ReLU(inplace=True)
    (3): Conv2d(84, 104, kernel_size=(3, 3), stride=(1, 1), padding=(1, 1))
    (4): BatchNorm2d(104, eps=1e-05, momentum=0.1, affine=True, track_running_stats=True)
  )
  (block2): Sequential(
    (0): Conv2d(104, 112, kernel_size=(3, 3), stride=(1, 1), padding=(1, 1))
    (1): BatchNorm2d(112, eps=1e-05, momentum=0.1, affine=True, track_running_stats=True)
    (2): ReLU(inplace=True)
    (3): Conv2d(112, 148, kernel_size=(3, 3), stride=(1, 1), padding=(1, 1))
    (4): BatchNorm2d(148, eps=1e-05, momentum=0.1, affine=True, track_running_stats=True)
    (5): ReLU(inplace=True)
    (6): Conv2d(148, 99, kernel_size=(3, 3), stride=(1, 1), padding=(1, 1))
    (7): BatchNorm2d(99, eps=1e-05, momentum=0.1, affine=True, track_running_stats=True)
    (8): ReLU(inplace=True)
    (9): Conv2d(99, 31, kernel_size=(3, 3), stride=(1, 1), padding=(1, 1))
    (10): BatchNorm2d(31, eps=1e-05, momentum=0.1, affine=True, track_running_stats=True)
  )
  (block3): Sequential(
    (0): Conv2d(31, 27, kernel_size=(3, 3), stride=(1, 1), padding=(1, 1))
    (1): BatchNorm2d(27, eps=1e-05, momentum=0.1, affine=True, track_running_stats=True)
    (2): ReLU(inplace=True)
    (3): Conv2d(27, 26, kernel_size=(3, 3), stride=(1, 1), padding=(1, 1))
    (4): BatchNorm2d(26, eps=1e-05, momentum=0.1, affine=True, track_running_stats=True)
    (5): ReLU(inplace=True)
    (6): Conv2d(26, 1, kernel_size=(3, 3), stride=(1, 1), padding=(1, 1))
    (7): BatchNorm2d(1, eps=1e-05, momentum=0.1, affine=True, track_running_stats=True)
    (8): ReLU(inplace=True)
    (9): Conv2d(1, 1, kernel_size=(3, 3), stride=(1, 1), padding=(1, 1))
    (10): BatchNorm2d(1, eps=1e-05, momentum=0.1, affine=True, track_running_stats=True)
  )
  (block4): Sequential(
    (0): Conv2d(1, 14, kernel_size=(3, 3), stride=(1, 1), padding=(1, 1))
    (1): BatchNorm2d(14, eps=1e-05, momentum=0.1, affine=True, track_running_stats=True)
    (2): ReLU(inplace=True)
    (3): Conv2d(14, 28, kernel_size=(3, 3), stride=(1, 1), padding=(1, 1))
    (4): BatchNorm2d(28, eps=1e-05, momentum=0.1, affine=True, track_running_stats=True)
    (5): ReLU(inplace=True)
    (6): Conv2d(28, 74, kernel_size=(3, 3), stride=(1, 1), padding=(1, 1))
    (7): BatchNorm2d(74, eps=1e-05, momentum=0.1, affine=True, track_running_stats=True)
    (8): ReLU(inplace=True)
    (9): Conv2d(74, 13, kernel_size=(3, 3), stride=(1, 1), padding=(1, 1))
    (10): BatchNorm2d(13, eps=1e-05, momentum=0.1, affine=True, track_running_stats=True)
  )
  (pool0): MaxPool2d(kernel_size=2, stride=2, padding=0, dilation=1, ceil_mode=False)
  (pool1): MaxPool2d(kernel_size=2, stride=2, padding=0, dilation=1, ceil_mode=False)
  (pool2): MaxPool2d(kernel_size=2, stride=2, padding=0, dilation=1, ceil_mode=False)
  (pool3): MaxPool2d(kernel_size=2, stride=2, padding=0, dilation=1, ceil_mode=False)
  (pool4): AdaptiveAvgPool2d(output_size=(1, 1))
  (classifier): Linear(in_features=13, out_features=100, bias=True)
)
[2025-05-09 08:14:26,661][Pruning][INFO] - Origin val acc : 0.7368999719619751 Final val acc : 0.6834999918937683
                      Speed up: 4.51   Final speed up: 9.03
[2025-05-09 08:14:31,662][train][INFO] - Epoch 140/2000, Val Acc=0.5659, Val Loss=1.6806, lr=0.0100
[2025-05-09 08:14:37,588][train][INFO] - Epoch 141/2000, Val Acc=0.5731, Val Loss=1.6334, lr=0.0100
…
